…
2020-02-01 17:28:04.027252: I tensorflow/core/common_runtime/gpu/gpu_device.cc:942] 0:   N 
2020-02-01 17:28:04.027640: I tensorflow/core/common_runtime/gpu/gpu_device.cc:1053] Created TensorFlow device (/job:localhost/replica:0/task:0/device:GPU:0 with 15137 MB memory) -> physical GPU (device: 0, name: Tesla P100-PCIE-16GB, pci bus id: 1f89:00:00.0, compute capability: 6.0)
_________________________________________________________________
Layer (type)                 Output Shape              Param #   
=================================================================
input_1 (InputLayer)         (None, 32, 32, 3)         0         
_________________________________________________________________
conv2d_1 (Conv2D)            (None, 32, 32, 32)        2432      
_________________________________________________________________
batch_normalization_1 (Batch (None, 32, 32, 32)        128       
_________________________________________________________________
activation_1 (Activation)    (None, 32, 32, 32)        0         
_________________________________________________________________
max_pooling2d_1 (MaxPooling2 (None, 16, 16, 32)        0         
_________________________________________________________________
conv2d_2 (Conv2D)            (None, 16, 16, 64)        51264     
_________________________________________________________________
batch_normalization_2 (Batch (None, 16, 16, 64)        256       
_________________________________________________________________
activation_2 (Activation)    (None, 16, 16, 64)        0         
_________________________________________________________________
max_pooling2d_2 (MaxPooling2 (None, 8, 8, 64)          0         
_________________________________________________________________
conv2d_3 (Conv2D)            (None, 8, 8, 128)         204928    
_________________________________________________________________
batch_normalization_3 (Batch (None, 8, 8, 128)         512       
_________________________________________________________________
activation_3 (Activation)    (None, 8, 8, 128)         0         
_________________________________________________________________
max_pooling2d_3 (MaxPooling2 (None, 4, 4, 128)         0         
_________________________________________________________________
flatten_1 (Flatten)          (None, 2048)              0         
_________________________________________________________________
dense_1 (Dense)              (None, 72)                147528    
_________________________________________________________________
activation_4 (Activation)    (None, 72)                0         
=================================================================
Total params: 407,048
Trainable params: 406,600
Non-trainable params: 448
_________________________________________________________________
Epoch 1/15

   128/360000 [..............................] - ETA: 1:12:49 - loss: 4.4423 - acc: 0.0078
   768/360000 [..............................] - ETA: 12:31 - loss: 4.7289 - acc: 0.0195  
  1408/360000 [..............................] - ETA: 7:02 - loss: 4.6935 - acc: 0.0185 
  2176/360000 [..............................] - ETA: 4:42 - loss: 4.6384 - acc: 0.0170_________________________________________________________________
Layer (type)                 Output Shape              Param #   
=================================================================
input_1 (InputLayer)         (None, 32, 32, 3)         0         
_________________________________________________________________
conv2d_1 (Conv2D)            (None, 32, 32, 32)        2432      
_________________________________________________________________
batch_normalization_1 (Batch (None, 32, 32, 32)        128       
_________________________________________________________________
activation_1 (Activation)    (None, 32, 32, 32)        0         
_________________________________________________________________
max_pooling2d_1 (MaxPooling2 (None, 16, 16, 32)        0         
_________________________________________________________________
conv2d_2 (Conv2D)            (None, 16, 16, 64)        51264     
_________________________________________________________________
batch_normalization_2 (Batch (None, 16, 16, 64)        256       
_________________________________________________________________
activation_2 (Activation)    (None, 16, 16, 64)        0         
_________________________________________________________________
max_pooling2d_2 (MaxPooling2 (None, 8, 8, 64)          0         
_________________________________________________________________
conv2d_3 (Conv2D)            (None, 8, 8, 128)         204928    
_________________________________________________________________
batch_normalization_3 (Batch (None, 8, 8, 128)         512       
_________________________________________________________________
activation_3 (Activation)    (None, 8, 8, 128)         0         
_________________________________________________________________
max_pooling2d_3 (MaxPooling2 (None, 4, 4, 128)         0         
_________________________________________________________________
flatten_1 (Flatten)          (None, 2048)              0         
_________________________________________________________________
dense_1 (Dense)              (None, 72)                147528    
_________________________________________________________________
activation_4 (Activation)    (None, 72)                0         
=================================================================
Total params: 407,048
Trainable params: 406,600
Non-trainable params: 448
_________________________________________________________________
Epoch 1/15

   128/360000 [..............................] - ETA: 1:13:48 - loss: 4.5136 - acc: 0.0078
  2944/360000 [..............................] - ETA: 3:35 - loss: 4.6025 - acc: 0.0183
…
 59392/360000 [===>..........................] - ETA: 29s - loss: 3.0996 - acc: 0.1221
 57472/360000 [===>..........................] - ETA: 30s - loss: 1.8203 - acc: 0.3672
 60160/360000 [====>.........................] - ETA: 29s - loss: 3.0893 - acc: 0.1229
 58240/360000 [===>..........................] - ETA: 30s - loss: 1.8134 - acc: 0.3681
 60928/360000 [====>.........................] - ETA: 29s - loss: 3.0798 - acc: 0.1235_________________________________________________________________
Layer (type)                 Output Shape              Param #   
=================================================================
input_1 (InputLayer)         (None, 32, 32, 3)         0         
_________________________________________________________________
conv2d_1 (Conv2D)            (None, 32, 32, 32)        2432      
_________________________________________________________________
batch_normalization_1 (Batch (None, 32, 32, 32)        128       
_________________________________________________________________
activation_1 (Activation)    (None, 32, 32, 32)        0         
_________________________________________________________________
max_pooling2d_1 (MaxPooling2 (None, 16, 16, 32)        0         
_________________________________________________________________
conv2d_2 (Conv2D)            (None, 16, 16, 64)        51264     
_________________________________________________________________
batch_normalization_2 (Batch (None, 16, 16, 64)        256       
_________________________________________________________________
activation_2 (Activation)    (None, 16, 16, 64)        0         
_________________________________________________________________
max_pooling2d_2 (MaxPooling2 (None, 8, 8, 64)          0         
_________________________________________________________________
conv2d_3 (Conv2D)            (None, 8, 8, 128)         204928    
_________________________________________________________________
batch_normalization_3 (Batch (None, 8, 8, 128)         512       
_________________________________________________________________
activation_3 (Activation)    (None, 8, 8, 128)         0         
_________________________________________________________________
max_pooling2d_3 (MaxPooling2 (None, 4, 4, 128)         0         
_________________________________________________________________
flatten_1 (Flatten)          (None, 2048)              0         
_________________________________________________________________
dense_1 (Dense)              (None, 72)                147528    
_________________________________________________________________
activation_4 (Activation)    (None, 72)                0         
=================================================================
Total params: 407,048
Trainable params: 406,600
Non-trainable params: 448
_________________________________________________________________
Epoch 1/15

   128/360000 [..............................] - ETA: 1:12:06 - loss: 4.5181 - acc: 0.0391
 59008/360000 [===>..........................] - ETA: 29s - loss: 1.8060 - acc: 0.3693
…
